…
Figure 4: PCA decomposition for the Beethoven training dataset, colored by the class. The dataset is clearly not linearly separable when represented by the first two principal components of the flattened mel-spectrograms, so the orchestra classification task is non-trivial.
S2.2 Convolutional Architectures
The exact convolutional architectures used for all three datasets are given below, displayed as the PyTorch model specification (https://pytorch.org/). The architectures are slightly different between the NSynth and the Composer and Beethoven datasets due to the difference in input mel-spectrogram dimensions. The Deformable convolution implementation used is from https://github.com/4uiiurz1/pytorch-deform-conv-v2. The 1d Frequency and 1d Time architectures are motivated by [21].
S2.2.1 NSynth Architectures
Regular Convolution
CNN( (conv1): Conv2d(1, 10, kernel_size=(5, 5), stride=(1, 1)) (conv1_bn1): BatchNorm2d(10, eps=1e-05, momentum=0.1, affine=True, track_running_stats=True) (pool1): MaxPool2d(kernel_size=2, stride=2, padding=0, dilation=1, ceil_mode=False) (conv2): Conv2d(10, 20, kernel_size=(5, 5), stride=(3, 3), padding=(3, 3)) (conv2_bn2): BatchNorm2d(20, eps=1e-05, momentum=0.1, affine=True, track_running_stats=True) (pool2): MaxPool2d(kernel_size=2, stride=2, padding=0, dilation=1, ceil_mode=False) (conv3): Conv2d(20, 30, kernel_size=(5, 5), stride=(2, 2)) (conv3_bn3): BatchNorm2d(30, eps=1e-05, momentum=0.1, affine=True, track_running_stats=True) (fc1): Linear(in_features=480, out_features=120, bias=True) (fc2): Linear(in_features=120, out_features=8, bias=True)
)
Deformable Convolution
CNN_deform( (conv1): Conv2d(1, 10, kernel_size=(5, 5), stride=(1, 1)) (conv1_bn1): BatchNorm2d(10, eps=1e-05, momentum=0.1, affine=True, track_running_stats=True) (pool1): MaxPool2d(kernel_size=2, stride=2, padding=0, dilation=1, ceil_mode=False) (conv2): Conv2d(10, 20, kernel_size=(5, 5), stride=(3, 3), padding=(3, 3)) (conv2_bn2): BatchNorm2d(20, eps=1e-05, momentum=0.1, affine=True, track_running_stats=True) (pool2): MaxPool2d(kernel_size=2, stride=2, padding=0, dilation=1, ceil_mode=False) (conv3): DeformConv2d( (zero_padding): ZeroPad2d(padding=(0, 0, 0, 0), value=0.0) (conv): Conv2d(20, 30, kernel_size=(5, 5), stride=(5, 5), bias=False) (p_conv): Conv2d(20, 50, kernel_size=(3, 3), stride=(2, 2), padding=(1, 1)) ) (conv3_bn3): BatchNorm2d(30, eps=1e-05, momentum=0.1, affine=True, track_running_stats=True) (fc1): Linear(in_features=1080, out_features=120, bias=True) (fc2): Linear(in_features=120, out_features=8, bias=True)
)
Dilated Convolution
CNN_dilated( (conv1): Conv2d(1, 10, kernel_size=(5, 5), stride=(1, 1), dilation=(3, 3)) (conv1_bn1): BatchNorm2d(10, eps=1e-05, momentum=0.1, affine=True, track_running_stats=True)
17

(pool1): MaxPool2d(kernel_size=2, stride=2, padding=0, dilation=1, ceil_mode=False) (conv2): Conv2d(10, 20, kernel_size=(5, 5), stride=(2, 2), padding=(3, 3), dilation=(2, 2)) (conv2_bn2): BatchNorm2d(20, eps=1e-05, momentum=0.1, affine=True, track_running_stats=True) (pool2): MaxPool2d(kernel_size=2, stride=2, padding=0, dilation=1, ceil_mode=False) (conv3): Conv2d(20, 30, kernel_size=(5, 5), stride=(2, 2), padding=(1, 1)) (conv3_bn3): BatchNorm2d(30, eps=1e-05, momentum=0.1, affine=True, track_running_stats=True) (fc1): Linear(in_features=1080, out_features=120, bias=True) (fc2): Linear(in_features=120, out_features=8, bias=True) )
1d Frequency
CNN_1dF( (conv1): Conv2d(1, 10, kernel_size=(5, 1), stride=(1, 1), dilation=(3, 1)) (conv1_bn1): BatchNorm2d(10, eps=1e-05, momentum=0.1, affine=True, track_running_stats=True) (pool1): MaxPool2d(kernel_size=(2, 1), stride=(2, 1), padding=0, dilation=1, ceil_mode=False) (conv2): Conv2d(10, 20, kernel_size=(5, 1), stride=(2, 1), padding=(3, 0), dilation=(2, 1)) (conv2_bn2): BatchNorm2d(20, eps=1e-05, momentum=0.1, affine=True, track_running_stats=True) (pool2): MaxPool2d(kernel_size=(2, 1), stride=(2, 1), padding=0, dilation=1, ceil_mode=False) (conv3): Conv2d(20, 30, kernel_size=(5, 1), stride=(2, 1), padding=(1, 0)) (conv3_bn3): BatchNorm2d(30, eps=1e-05, momentum=0.1, affine=True, track_running_stats=True) (fc1): Linear(in_features=23040, out_features=120, bias=True) (fc2): Linear(in_features=120, out_features=8, bias=True)
)
1d Time
CNN_1dT( (conv1): Conv2d(1, 10, kernel_size=(1, 5), stride=(1, 1), dilation=(1, 3)) (conv1_bn1): BatchNorm2d(10, eps=1e-05, momentum=0.1, affine=True, track_running_stats=True) (pool1): MaxPool2d(kernel_size=(1, 2), stride=(1, 2), padding=0, dilation=1, ceil_mode=False) (conv2): Conv2d(10, 20, kernel_size=(1, 5), stride=(1, 2), padding=(0, 3), dilation=(1, 2)) (conv2_bn2): BatchNorm2d(20, eps=1e-05, momentum=0.1, affine=True, track_running_stats=True) (pool2): MaxPool2d(kernel_size=(1, 2), stride=(1, 2), padding=0, dilation=1, ceil_mode=False) (conv3): Conv2d(20, 30, kernel_size=(1, 5), stride=(1, 2), padding=(0, 1)) (conv3_bn3): BatchNorm2d(30, eps=1e-05, momentum=0.1, affine=True, track_running_stats=True) (fc1): Linear(in_features=23040, out_features=120, bias=True) (fc2): Linear(in_features=120, out_features=8, bias=True)
)
S2.2.2 Composer and Beethoven Architectures
Note: for the Beethoven dataset experiments, out_features = 10 for all architectures.
Regular Convolution
CNN( (conv1): Conv2d(1, 10, kernel_size=(5, 5), stride=(1, 1)) (conv1_bn1): BatchNorm2d(10, eps=1e-05, momentum=0.1, affine=True, track_running_stats=True) (pool1): MaxPool2d(kernel_size=2, stride=2, padding=0, dilation=1, ceil_mode=False) (conv2): Conv2d(10, 20, kernel_size=(5, 5), stride=(3, 3), padding=(3, 3)) (conv2_bn2): BatchNorm2d(20, eps=1e-05, momentum=0.1, affine=True, track_running_stats=True) (pool2): MaxPool2d(kernel_size=2, stride=2, padding=0, dilation=1, ceil_mode=False) (conv3): Conv2d(20, 30, kernel_size=(5, 5), stride=(2, 2)) (conv3_bn3): BatchNorm2d(30, eps=1e-05, momentum=0.1, affine=True, track_running_stats=True) (fc1): Linear(in_features=720, out_features=120, bias=True) (fc2): Linear(in_features=120, out_features=5, bias=True)
)
Deformable Convolution
CNN_deform( (conv1): Conv2d(1, 10, kernel_size=(5, 5), stride=(1, 1)) (conv1_bn1): BatchNorm2d(10, eps=1e-05, momentum=0.1, affine=True, track_running_stats=True) (pool1): MaxPool2d(kernel_size=2, stride=2, padding=0, dilation=1, ceil_mode=False) (conv2): Conv2d(10, 20, kernel_size=(5, 5), stride=(3, 3), padding=(3, 3)) (conv2_bn2): BatchNorm2d(20, eps=1e-05, momentum=0.1, affine=True, track_running_stats=True) (pool2): MaxPool2d(kernel_size=2, stride=2, padding=0, dilation=1, ceil_mode=False) (conv3): DeformConv2d( (zero_padding): ZeroPad2d(padding=(0, 0, 0, 0), value=0.0) (conv): Conv2d(20, 30, kernel_size=(5, 5), stride=(5, 5), bias=False) (p_conv): Conv2d(20, 50, kernel_size=(3, 3), stride=(2, 2), padding=(1, 1)) ) (conv3_bn3): BatchNorm2d(30, eps=1e-05, momentum=0.1, affine=True, track_running_stats=True) (fc1): Linear(in_features=1440, out_features=120, bias=True) (fc2): Linear(in_features=120, out_features=5, bias=True)
)
18

Dilated Convolution
CNN_dilated( (conv1): Conv2d(1, 10, kernel_size=(5, 5), stride=(1, 1), dilation=(3, 3)) (conv1_bn1): BatchNorm2d(10, eps=1e-05, momentum=0.1, affine=True, track_running_stats=True) (pool1): MaxPool2d(kernel_size=2, stride=2, padding=0, dilation=1, ceil_mode=False) (conv2): Conv2d(10, 20, kernel_size=(5, 5), stride=(2, 2), padding=(3, 3), dilation=(2, 2)) (conv2_bn2): BatchNorm2d(20, eps=1e-05, momentum=0.1, affine=True, track_running_stats=True) (pool2): MaxPool2d(kernel_size=2, stride=2, padding=0, dilation=1, ceil_mode=False) (conv3): Conv2d(20, 30, kernel_size=(5, 5), stride=(2, 2), padding=(1, 1)) (conv3_bn3): BatchNorm2d(30, eps=1e-05, momentum=0.1, affine=True, track_running_stats=True) (fc1): Linear(in_features=1620, out_features=120, bias=True) (fc2): Linear(in_features=120, out_features=5, bias=True)
)
1d Frequency
CNN_1dF( (conv1): Conv2d(1, 10, kernel_size=(5, 1), stride=(1, 1), dilation=(3, 1)) (conv1_bn1): BatchNorm2d(10, eps=1e-05, momentum=0.1, affine=True, track_running_stats=True) (pool1): MaxPool2d(kernel_size=(2, 1), stride=(2, 1), padding=0, dilation=1, ceil_mode=False) (conv2): Conv2d(10, 20, kernel_size=(5, 1), stride=(2, 1), padding=(3, 0), dilation=(2, 1)) (conv2_bn2): BatchNorm2d(20, eps=1e-05, momentum=0.1, affine=True, track_running_stats=True) (pool2): MaxPool2d(kernel_size=(2, 1), stride=(2, 1), padding=0, dilation=1, ceil_mode=False) (conv3): Conv2d(20, 30, kernel_size=(5, 1), stride=(2, 1), padding=(1, 0)) (conv3_bn3): BatchNorm2d(30, eps=1e-05, momentum=0.1, affine=True, track_running_stats=True) (fc1): Linear(in_features=31680, out_features=120, bias=True) (fc2): Linear(in_features=120, out_features=5, bias=True)
)
1d Time
CNN_1dT( (conv1): Conv2d(1, 10, kernel_size=(1, 5), stride=(1, 1), dilation=(1, 3)) (conv1_bn1): BatchNorm2d(10, eps=1e-05, momentum=0.1, affine=True, track_running_stats=True) (pool1): MaxPool2d(kernel_size=(1, 2), stride=(1, 2), padding=0, dilation=1, ceil_mode=False) (conv2): Conv2d(10, 20, kernel_size=(1, 5), stride=(1, 2), padding=(0, 3), dilation=(1, 2)) (conv2_bn2): BatchNorm2d(20, eps=1e-05, momentum=0.1, affine=True, track_running_stats=True) (pool2): MaxPool2d(kernel_size=(1, 2), stride=(1, 2), padding=0, dilation=1, ceil_mode=False) (conv3): Conv2d(20, 30, kernel_size=(1, 5), stride=(1, 2), padding=(0, 1)) (conv3_bn3): BatchNorm2d(30, eps=1e-05, momentum=0.1, affine=True, track_running_stats=True) (fc1): Linear(in_features=34560, out_features=120, bias=True) (fc2): Linear(in_features=120, out_features=5, bias=True)
)
All architectures are trained with cross entropy loss, the SGD optimizer with learning rate 0.005 and momentum 0.9, for 150 epochs with a batch size of 64. The overall accuracies of each network architecture, as well as the number of parameters and the dimensions of the features of the last convolutional layer (conv3) are given for the NSynth (Table 6)
…
